lessons/3-NeuralNetworks/05-Frameworks/lightning_logs/version_0/checkpoints/epoch=29-step=150.ckpt (torch, 4620 bytes, 3 tensors)

fc1.weight f4 [10, 2]
0	0xbe23e6a6	-0.16005954
1	0xbe4dc625	-0.20095117
2	0x3f22f1ad	0.6365002
3	0x3d114543	0.035466444
4	0xbefaf49e	-0.49014753
5	0xbe03fdd3	-0.12889795
6	0xbe0a5949	-0.13510622
7	0xbd1b05a1	-0.037847165
8	0xbf02f4b4	-0.5115464
9	0xbe3d150f	-0.18465064
10	0xbf025470	-0.5091009
11	0x3ed58f45	0.41710868
12	0xbf33e0f1	-0.7026511
13	0x3e2661e3	0.16248278
14	0x3f2db082	0.67847455
15	0xbf261633	-0.64877623
16	0x3f01d1b7	0.50710624
17	0xbea2518e	-0.31702846
18	0x3e7caa01	0.24674226
19	0x3eb07368	0.34463048

fc1.bias f4 [10]
0	0x3eb0cf1a	0.34533006
1	0xbe811f41	-0.25219157
2	0xbef1f8aa	-0.47260028
3	0xbe75ea3a	-0.24015132
4	0xbd1c0ce2	-0.038098224
5	0x3e94b8a0	0.29047108
6	0x3cbaae0f	0.022788076
7	0xbef2e545	-0.47440544
8	0xbecd1b2a	-0.40059787
9	0x3e8fcbf8	0.28085303

fc2.weight f4 [1, 10]
0	0xbe990fb7	-0.29894802
1	0x3e8794c2	0.2648068
2	0x3e9acda6	0.30235022
3	0x3dda6507	0.10663801
4	0xbdb01ab6	-0.08598845
5	0x3e333709	0.17501463
6	0xbd845d68	-0.06463128
7	0xbe69abd1	-0.22819449
8	0x3d4fde35	0.050749023
9	0xbdb2c9be	-0.087298855
